…
[34m[1mhyperparameters: [0mlr0=0.01, lrf=0.01, momentum=0.937, weight_decay=0.0005, warmup_epochs=3.0, warmup_momentum=0.8, warmup_bias_lr=0.1, box=0.05, cls=0.5, cls_pw=1.0, obj=1.0, obj_pw=1.0, iou_t=0.2, anchor_t=4.0, fl_gamma=0.0, hsv_h=0.015, hsv_s=0.7, hsv_v=0.4, degrees=0.0, translate=0.1, scale=0.5, shear=0.0, perspective=0.0, flipud=0.0, fliplr=0.5, mosaic=1.0, mixup=0.0, copy_paste=0.0
[34m[1mComet: [0mrun 'pip install comet_ml' to automatically track and visualize YOLOv5 🚀 runs in Comet
[34m[1mTensorBoard: [0mStart with 'tensorboard --logdir my_exps', view at http://localhost:6006/
Overriding model.yaml nc=80 with nc=1

                 from  n    params  module                                  arguments                     
  0                -1  1      3520  models.common.Conv                      [3, 32, 6, 2, 2]              
  1                -1  1      3264  models.exp_module.BFF                   [32, 32]                      
  2                -1  1     18560  models.common.Conv                      [32, 64, 3, 2]                
  3                -1  1     12672  models.exp_module.BFF                   [64, 64]                      
  4                -1  1     18816  models.common.C3                        [64, 64, 1]                   
  5                -1  1     73984  models.common.Conv                      [64, 128, 3, 2]               
  6                -1  2    115712  models.common.C3                        [128, 128, 2]                 
  7                -1  1    295424  models.common.Conv                      [128, 256, 3, 2]              
  8                -1  3    625152  models.common.C3                        [256, 256, 3]                 
  9                -1  1   1180672  models.common.Conv                      [256, 512, 3, 2]              
 10                -1  1   1182720  models.common.C3                        [512, 512, 1]                 
 11                -1  1    656896  models.common.SPPF                      [512, 512, 5]                 
 12                -1  1    131584  models.common.Conv                      [512, 256, 1, 1]              
 13                -1  1         0  torch.nn.modules.upsampling.Upsample    [None, 2, 'nearest']          
 14           [-1, 8]  1         0  models.common.Concat                    [1]                           
 15                -1  1    361984  models.common.C3                        [512, 256, 1, False]          
 16                -1  1     33024  models.common.Conv                      [256, 128, 1, 1]              
 17                -1  1         0  torch.nn.modules.upsampling.Upsample    [None, 2, 'nearest']          
 18           [-1, 6]  1         0  models.common.Concat                    [1]                           
 19                -1  1     90880  models.common.C3                        [256, 128, 1, False]          
 20                -1  1    147712  models.common.Conv                      [128, 128, 3, 2]              
 21          [-1, 16]  1         0  models.common.Concat                    [1]                           
 22                -1  1    296448  models.common.C3                        [256, 256, 1, False]          
 23                -1  1    590336  models.common.Conv                      [256, 256, 3, 2]              
 24          [-1, 12]  1         0  models.common.Concat                    [1]                           
 25                -1  1   1182720  models.common.C3                        [512, 512, 1, False]          
 26      [19, 22, 25]  1     16182  models.yolo.Detect                      [1, [[10, 13, 16, 30, 33, 23], [30, 61, 62, 45, 59, 119], [116, 90, 156, 198, 373, 326]], [128, 256, 512]]
YOLOv5s-bff summary: 234 layers, 7038262 parameters, 7038262 gradients, 17.3 GFLOPs

[34m[1mAMP: [0mchecks passed ✅
[34m[1moptimizer:[0m SGD(lr=0.01) with parameter groups 63 weight(decay=0.0), 66 weight(decay=0.0005), 66 bias
…
